actor_solved.pth (torch_old, 169454 bytes, 6 tensors)

fc1.weight f4 [256, 33]
0	0x3e1b3848	0.15158188
1	0x3e354dcf	0.17705463
2	0x3dc291f6	0.09500496
3	0xbdbf8202	-0.09350969
4	0x3e38137b	0.17976181
5	0x3e8b00fd	0.27149191
6	0xbdc4f633	-0.09617271
7	0x3c013019	0.0078850025
8	0xbdb35de1	-0.0875814
9	0x3dd13e4b	0.102169596
10	0xbd955c38	-0.0729298
11	0x3dc40086	0.09570412
12	0x3d8d980d	0.06913767
13	0x3d66f918	0.056389898
14	0x3c0bc2eb	0.008530359
15	0xbd852468	-0.065010846
16	0xbe204ab2	-0.15653494
17	0x3e1d94ae	0.15388748
18	0xbcc56a0b	-0.024098417
19	0x3c4fff87	0.0126952
20	0xbe4fdbcb	-0.20298688
21	0x3e28dfa9	0.1649157
22	0xbd2e3c2a	-0.042537846
23	0xbe4d2b60	-0.20036077
24	0xbdab7d07	-0.083734564
25	0xbd3f1dab	-0.046659153
26	0xbded316b	-0.11581691
27	0xbd7b0ab6	-0.06128951
28	0xbdd25eda	-0.10271998
29	0x3d3ddfd2	0.04635603
30	0x3d8e0fb5	0.0693659
31	0xbcac232c	-0.021012865
32	0xbe2d9706	-0.16952142
33	0x3e77d910	0.24203897
34	0xbd3c3c3f	-0.045955893
35	0xbcef7a4a	-0.029233117
36	0xbd8ebfae	-0.06970154
37	0x3c808595	0.015688697
38	0xbed6942c	-0.4190992
39	0x3dfec616	0.12440126
40	0x3db5ac25	0.088707246
41	0x3d533f36	0.051573955
42	0x3d9e1a80	0.07719898
43	0x3dcfd015	0.101471104
44	0xbcaf0682	-0.021365408
45	0xbd74481a	-0.059639074
46	0xbd9839ea	-0.07432921
47	0x3e7ef424	0.2489782
48	0x3cddc690	0.027072221
49	0x3932a3f0	0.00017036474
50	0xbd5a0fdf	-0.053237792
51	0x3d958d62	0.07302357
52	0xbdf38aa0	-0.11891675
53	0x3c9ea239	0.019364463
54	0x3d556d7d	0.05210637
55	0xbdb9e61a	-0.090770915
56	0x3e11a4dd	0.14223047
57	0x3defbb4f	0.11705648
58	0xbe0a6945	-0.1351672
59	0x3decac8b	0.115563475
60	0xbcf38cf5	-0.0297303
61	0x3de2eaea	0.110799626
62	0x3d1a8642	0.037725694
63	0x3d476653	0.04868157
64	0xbcc00cb8	-0.023443565
65	0xbea7c62d	-0.32768384
66	0xbe33afb7	-0.17547499
67	0xbdec3085	-0.11532692
68	0x3e0eaeda	0.13933888
69	0xbc41c9d5	-0.011827906
70	0xbd6a8cd3	-0.057263207
71	0x3e16d160	0.14728308
72	0xbc8fdb7d	-0.017560715
73	0xbd6b88cb	-0.057503503
74	0xbdd37d20	-0.103266
75	0xbd6a15e4	-0.057149783
76	0xbcc6e0ae	-0.024277057
77	0xbd8fae85	-0.07015709
78	0xbc51061e	-0.012757806
79	0x3e6b8130	0.229985
80	0xbd67e9d3	-0.056619477
81	0xbd4ea152	-0.050446816
82	0xbddbe824	-0.10737637
83	0x3d174735	0.036933143
84	0xbb829afd	-0.003985761
85	0xbd648f8f	-0.05580097
86	0xbd9654d3	-0.07340398
87	0x3cb98f21	0.022651257
88	0x3d26067e	0.040533535
89	0x3da9f6b2	0.082990065
90	0x3b84127d	0.0040305243
91	0x3d1d931f	0.038470384
92	0xbd7f41ad	-0.062318493
93	0xbd3abd77	-0.045590844
94	0x3c40baac	0.011763256
95	0xbc41deb8	-0.011832885
96	0xba77665c	-0.0009437555
97	0xbd1e3dae	-0.03863304
98	0xbe48fd88	-0.19627964
99	0x3cf0e71d	0.029407078
100	0x3ce83808	0.02834703
101	0xbe5624f1	-0.2091253
102	0x3ce36fe1	0.027763309
103	0x3d57cf22	0.05268777
104	0xbab8179f	-0.0014045126
105	0xbded0c54	-0.11574617
106	0x3cf5cefc	0.030005924
107	0xbe849524	-0.25895035
108	0x3c9f9428	0.019479826
109	0xbd28d8ee	-0.041222505
110	0x3e296a14	0.16544372
111	0xbe59647c	-0.21229738
112	0xbd8e309d	-0.06942866
113	0x3dcc37f1	0.099716075
114	0xbd35fdcf	-0.044431504
115	0xbdfc62c7	-0.12323528
116	0xbd8f563e	-0.06998871
117	0x3d6b6642	0.057470568
118	0xbd344e24	-0.044019833
119	0x3cfd0f21	0.030891003
120	0x3d8ec2ba	0.06970735
121	0x3cbfc07a	0.02340721
122	0x3c7e5af3	0.015524614
123	0xbd8ee3b1	-0.069770224
124	0xbe3ac91d	-0.18240781
125	0xbe66d9f0	-0.22544074
126	0x3d9dadcc	0.07699165
127	0xbca16a79	-0.01970409
128	0x3bf80a80	0.007569611
129	0xbdd6abb8	-0.104819715
130	0x3cd133d0	0.025537401
131	0x3d48b0a5	0.048996586
132	0xbc44de08	-0.012015827
133	0x3d783af5	0.0606031
134	0xbe13b6b5	-0.14425166
135	0xbd013e80	-0.031553745
136	0xbdc18e87	-0.09451013
137	0x3c1a192f	0.009405418
138	0x3dd7f307	0.10544401
139	0x3dbcee8b	0.09225186
140	0xbca3ff51	-0.020019205
141	0xbd2f67c2	-0.04282356
142	0xbaeb3206	-0.0017943985
143	0x3df9fd50	0.12206519
144	0xbe3ade8d	-0.18248959
145	0x3db53510	0.088480115
146	0x3e6eddad	0.2332675
147	0xbd777e3b	-0.060423117
148	0x3d48711c	0.048935995
149	0xba2bc096	-0.000655183
150	0x3cd5de86	0.026107084
151	0x3cb95d6e	0.022627559
152	0x3e67eae6	0.226482
153	0x3d8d88ce	0.06910859
154	0x3e2b7436	0.1674355
155	0x3e0dc48c	0.13844508
156	0xbd021b4c	-0.031764314
157	0x3d7901bd	0.060792673
158	0x3d8c8bf6	0.06862633
159	0x3c3b2f2c	0.011424821
160	0x3c8f9255	0.017525831
161	0x3d2ec3c6	0.042667173
162	0xbb900d7a	-0.004396138
163	0xbbe1e170	-0.0068933293
164	0x3f317b42	0.693287
165	0x3d083437	0.03325292
166	0xbc735e54	-0.014854033
167	0xbcbbcb68	-0.02292414
168	0xbe01404c	-0.12622184
169	0x3d46f297	0.048571195
170	0xbdb65f9b	-0.08904954
171	0xbde8da23	-0.11369731
172	0xbc954c49	-0.018224852
173	0xbd3f0397	-0.046634283
174	0xbd1c5218	-0.03816423
175	0xbcc10ad7	-0.02356474
176	0x3d45ff61	0.04833925
177	0x3d5ebcdf	0.05437934
178	0x3ba8745d	0.0051408247
179	0x3e361e93	0.177851
180	0x3d668d64	0.056287184
181	0x3bf6b7bb	0.0075292266
182	0xbdf10718	-0.11768931
183	0xbd20157e	-0.039082997
184	0xbd45b3c0	-0.048267126
185	0x3d60bc1b	0.05486689
186	0x3db9c1bc	0.09070155
187	0xbdabdc89	-0.08391673
188	0xbe6bd543	-0.23030572
189	0xbd0408e4	-0.03223504
190	0xbe0c7a3e	-0.13718507
191	0x3e34ff1a	0.17675439
192	0x3d3cd4d6	0.046101414
193	0x3d394b41	0.045237783
194	0x3ae19300	0.0017209947
195	0x3c6a395e	0.014295904
196	0x3d421050	0.047378838
197	0x3e9ed04f	0.31018302
198	0x3d37a7a3	0.044837605
199	0x3e2743fe	0.1633453
200	0xbe2eb2d2	-0.17060402
201	0xbd37cd52	-0.044873543
202	0xbdf32696	-0.11872594
203	0xbd4a758e	-0.049428515
204	0xbe44b7e2	-0.1921077
205	0xbd68cae7	-0.056834128
206	0x3ec7a21d	0.3899087
207	0xbdac957e	-0.08426951
208	0xbd4f08c3	-0.050545465
209	0x3d347ff3	0.044067334
210	0x3df799dc	0.12089893
211	0xbdc9a6be	-0.09846257
212	0x3c01b96f	0.007917746
213	0x3d121332	0.035662837
214	0x3dae480e	0.08509837
215	0xbcb293e4	-0.021799035
216	0xbc0a3172	-0.00843464
217	0xbdadb144	-0.08481076
218	0x3e12caac	0.14335126
219	0x3e2f3438	0.17109764
220	0x3d9f940c	0.077919096
221	0xbd56266c	-0.052282736
222	0xbd86f59b	-0.06589814
223	0x3e46c6cc	0.19411772
224	0x3c4ca03a	0.012489373
225	0x3d70db00	0.058802605
226	0xbd5fab0c	-0.054606482
227	0x3d6f7136	0.058457576
228	0x3cc352ac	0.023843132
229	0x3cbbf0a8	0.022941902
230	0x3e2f1719	0.17098655
231	0x3dfef52a	0.12449105
232	0x3e15bcd5	0.14622815
233	0xbe60468d	-0.21901913
234	0x3d778ded	0.060438085
235	0x3e38b254	0.18036777
236	0x3db71ffe	0.08941649
237	0x3c0ec31b	0.008713509
238	0x3d95d9a2	0.07316901
239	0xbd576b0f	-0.052592333
240	0xbd9307e8	-0.07179242
241	0x3bcbe616	0.0062224967
242	0xbd002f62	-0.031295188
243	0xbb9ebf31	-0.004844569
244	0xbd8464f2	-0.06464566
245	0xbb070f60	-0.002060853
246	0xbc8f90a2	-0.017525021
247	0xbcf28583	-0.029604679
248	0xbca171af	-0.019707529
249	0xbd59b99c	-0.053155527
250	0xbc72b8d0	-0.014814571
251	0x3d0ff312	0.03514392
252	0x3e291ad3	0.16514139
253	0xbdb9348a	-0.09043224
254	0xbe30ef18	-0.17278707
255	0x3bbc174c	0.005740082

fc1.bias f4 [256]
0	0x3d3e1a10	0.046411574
1	0xbdce916a	-0.10086329
2	0x3e0f2a45	0.13980968
3	0xbdccd214	-0.10001007
4	0x3ce28cd4	0.027655043
5	0xbc96347c	-0.018335573
6	0xbe3d9c4f	-0.18516658
7	0xbd76841f	-0.060184594
8	0xbccce44d	-0.025011206
9	0x3e216c19	0.15763892
10	0xbcf2793d	-0.029598827
11	0x3e45bac2	0.19309524
12	0xbd5ba786	-0.05362656
13	0x3e5189e3	0.20462756
14	0x3e2c054a	0.16798893
15	0x3e3b1fac	0.182738
16	0x3deade11	0.11468137
17	0xbca26614	-0.019824065
18	0x3cf93bda	0.030424047
19	0xbe0b7669	-0.13619389
20	0x3d89c12f	0.067263
21	0xbdeae43b	-0.11469313
22	0x3d22e172	0.039765783
23	0x3e18e6e2	0.14931825
24	0xbe535d17	-0.2064098
25	0x3d3a05b1	0.045415584
26	0x3e2f826b	0.17139594
27	0xbd9e0cea	-0.07717307
28	0x3d080669	0.03320924
29	0xbd8173f7	-0.06320947
30	0x3d686a5f	0.05674207
31	0xbdd58756	-0.10426204
32	0x3da62ebb	0.08114382
33	0xbdedf2f2	-0.11618604
34	0xbd3bb98f	-0.04583126
35	0x3dbc102a	0.091827706
36	0xbe0b244a	-0.13588062
37	0xbdf71df8	-0.12066263
38	0x3e8ca45f	0.27469155
39	0x3d7c06ad	0.061529804
40	0xbe2dbf09	-0.16967405
41	0x3ce5e8a0	0.028065026
42	0x3e32a465	0.17445524
43	0x3d47916d	0.048722673
44	0x3e063ecd	0.13109894
45	0x3c4b1726	0.012395656
46	0x3e084ab8	0.13309753
47	0xbd06ea86	-0.032938503
48	0x3dd3bf43	0.10339215
49	0x3dfee4ac	0.124459594
50	0xbe13de09	-0.14440168
51	0x3e03694d	0.12833138
52	0x3d45184f	0.048118886
53	0x3d654dd1	0.055982415
54	0xbbc0ff7d	-0.0058898316
55	0x3db7e0c7	0.0897842
56	0xbd06a609	-0.032873187
57	0xbd45e66d	-0.048315454
58	0xbe27ece6	-0.16398963
59	0x3da3c3cf	0.07996332
60	0xbd3d991a	-0.046288587
61	0xbe278f64	-0.16363293
62	0x3db06a96	0.0861408
63	0x3dc1fabf	0.09471654
64	0xbe0ca360	-0.13734198
65	0xbdca355e	-0.0987346
66	0x3d4ccf06	0.05000212
67	0xbb93a6c1	-0.0045059626
68	0x3e0f8a85	0.14017685
69	0xbcb81a13	-0.02247337
70	0x3e207a04	0.15671545
71	0xbccbad67	-0.024862958
72	0xbe30ee1c	-0.17278332
73	0x3e49ab1a	0.19694176
74	0x3e2c640d	0.16835041
75	0x3dd2d512	0.10294546
76	0xbe1ba5fd	-0.15200038
77	0x3e387354	0.18012744
78	0xbd0bdc10	-0.034145415
79	0x3dd96db8	0.1061663
80	0x3e2b2d5e	0.16716525
81	0xbbe4c7a3	-0.0069818064
82	0xbe45218b	-0.19251077
83	0x3e057bce	0.13035509
84	0x3dffd6f1	0.12492169
85	0x3e025a99	0.12729873
86	0xbc8e0ecc	-0.01734104
87	0xbcbb94cf	-0.022898106
88	0x3dcdea3d	0.10054443
89	0x3e4d4cdc	0.20048851
90	0xbc002e44	-0.007823531
91	0x3d04792d	0.032342125
92	0x3dbf64ea	0.0934542
93	0x3e4588b4	0.1929043
94	0xbc2e4fca	-0.01063914
95	0xbd649bee	-0.05581277
96	0x3cd23567	0.02566023
97	0xbe6f8d53	-0.23393755
98	0x3db922d8	0.09039849
99	0xbd04f010	-0.032455504
100	0x3e35adee	0.1774213
101	0x3da40a38	0.080097616
102	0x3d8ae557	0.06782024
103	0xbdf221b5	-0.11822835
104	0x3d7501a0	0.059816003
105	0x3b70a046	0.0036716624
106	0xbdb0ed14	-0.08638969
107	0x3c1b58a0	0.009481579
108	0x3d675658	0.05647883
109	0x3ccd64a6	0.025072407
110	0x3e756efd	0.2396812
111	0xbd17025a	-0.036867477
112	0xbe0802ec	-0.13282365
113	0xbe2b69a3	-0.16739516
114	0x3da57699	0.08079261
115	0x3c8c6c56	0.017141502
116	0xbd9b08a8	-0.075700104
117	0xbcb89cb4	-0.02253566
118	0x3cfd15c1	0.030894162
119	0x3d154a21	0.036447648
120	0x3e4f4bd0	0.20243764
121	0x3e878139	0.26465777
122	0xbb7c5ebb	-0.0038508612
123	0x3e2e6574	0.17030889
124	0x3e84e4c4	0.25955784
125	0x3e1d868a	0.15383354
126	0xbe08e3f8	-0.13368213
127	0xbd4b87a6	-0.04968991
128	0xbd9be8e7	-0.07612782
129	0xbd86bf81	-0.06579495
130	0xbe0a689d	-0.1351647
131	0x3cad705f	0.021171747
132	0x3e2d1fda	0.16906682
133	0x3b981a7c	0.004641829
134	0xbd70a023	-0.05874647
135	0x3c39fc74	0.011351693
136	0x3daa3032	0.08309974
137	0xbdb630e2	-0.088960424
138	0xbdab369c	-0.08360025
139	0xbd51624e	-0.05111914
140	0x3db8f736	0.09031527
141	0xbd998209	-0.07495505
142	0x3d990b0e	0.07472812
143	0x3db8bcec	0.09020409
144	0xbe0f8a96	-0.1401771
145	0xbe00fa5b	-0.12595503
146	0xbd89e228	-0.06732589
147	0x3e8d5b8b	0.27608904
148	0x3e299310	0.16560006
149	0xbe2fb1fe	-0.17157742
150	0xbd58d2dc	-0.052935466
151	0x3d930f21	0.0718062
152	0x3dcb589a	0.09929009
153	0xbddff436	-0.109352514
154	0x3da80923	0.08204868
155	0xbdb60bfe	-0.08889006
156	0xbe523fd0	-0.20532155
157	0x3dbcf1e3	0.09225824
158	0xbe0c36ad	-0.13692732
159	0xbda3cbf2	-0.07997884
160	0x3c161fc3	0.009162846
161	0xbe1bf8c1	-0.15231611
162	0x3e42b677	0.19014917
163	0x3e6bd522	0.23030522
164	0x3decf2b4	0.115697294
165	0xbd6e55f6	-0.058187447
166	0xbd99b4c3	-0.07505181
167	0x3d1f1291	0.038836066
168	0xbe03df35	-0.12878115
169	0xbd082536	-0.033238612
170	0x3e6ab7af	0.22921632
171	0x3e790457	0.24318062
172	0xbde1c5bb	-0.11024042
173	0x3da2b7de	0.07945226
174	0x3b8bfc85	0.004272046
175	0x3b3208e7	0.002716595
176	0xbeab1072	-0.33410984
177	0xbdcdcd9d	-0.10048983
178	0xbbcf105e	-0.00631909
179	0xbc4f6e10	-0.012660518
180	0xbcbb10a4	-0.022835083
181	0xbc7ff32c	-0.015621942
182	0x39ed16a2	0.00045221025
183	0xbd31a19d	-0.043367017
184	0xbd5aff41	-0.053466085
185	0x3dbc8071	0.09204186
186	0x3e868377	0.26272175
187	0xbe459248	-0.19294083
188	0xbd1b13fd	-0.03786086
189	0x3e20833d	0.15675063
190	0xbd1d5e91	-0.038420264
191	0x3e13b335	0.14423831
192	0x3dc870fe	0.097871765
193	0xbdb27b90	-0.08714974
194	0x3cf8db0b	0.030377885
195	0xbe44b8ab	-0.1921107
196	0x3d9bcc26	0.076072976
197	0x3e7469f6	0.23868546
198	0xbe1d1117	-0.1533855
199	0x3e45cac5	0.19315632
200	0x3e3a7301	0.18207933
201	0x3e6b68e7	0.22989236
202	0xbcaea3e3	-0.021318382
203	0x3e86d1ac	0.26331842
204	0xbc91af44	-0.017783768
205	0xbe1de175	-0.15418036
206	0xbe089d21	-0.1334119
207	0xbe667d90	-0.22508836
208	0xbceeb892	-0.029140744
209	0x3da39b47	0.07988601
210	0xbd90af8d	-0.07064734
211	0xbda40c19	-0.0801012
212	0xbd034e2a	-0.032056965
213	0x3dfb65c6	0.12275271
214	0xbd362947	-0.04447296
215	0xbdc8b8fc	-0.09800908
216	0x3b8bbfeb	0.0042648218
217	0xbe313532	-0.17305449
218	0xbe191092	-0.14947727
219	0x3e8d87c0	0.27642632
220	0x3d771f6c	0.0603327
221	0xbe2b57f9	-0.16732778
222	0x3daf5908	0.08561903
223	0x3c5b2f58	0.013377987
224	0xbd7949d3	-0.06086142
225	0xbe9256fb	-0.28581986
226	0x3c8e6051	0.017379912
227	0xbd942496	-0.07233541
228	0x3d965fac	0.07342467
229	0x3e29e5c6	0.16591558
230	0x3dc19035	0.094513334
231	0xbc91e5a4	-0.017809696
232	0xbe364918	-0.1780132
233	0x3dd4bdee	0.10387789
234	0x3cbcca96	0.02304582
235	0xbce9de94	-0.028548516
236	0xbd0ae8d8	-0.033913463
237	0x3e06a700	0.13149643
238	0xbe26b950	-0.16281629
239	0x3d67e6c9	0.05661658
240	0xbe9e17ab	-0.30877432
241	0xbe2c06ad	-0.16799422
242	0x3bfc25d7	0.0076949405
243	0xbc87cb84	-0.016576536
244	0x3e0bf5f1	0.13668038
245	0xbd09318f	-0.03349453
246	0x3cecb2f7	0.02889393
247	0x3e41a0cc	0.18908995
248	0x3d11a84f	0.035560902
249	0x3e4d395c	0.20041412
250	0x3c3f144a	0.011662552
251	0xbe48ddd4	-0.1961587
252	0xbdc5da5f	-0.096607916
253	0x3d687697	0.05675372
254	0xbe1baa33	-0.15201645
255	0xbdebff4b	-0.11523303

fc2.weight f4 [128, 256]
0	0x3dc3c91e	0.095598444
1	0x3e53649c	0.20643848
2	0xbcebe8c2	-0.028797511
3	0x3e2069dc	0.15665382
4	0xbeeacfb4	-0.4586159
5	0xbda0d9bd	-0.0785403
6	0xbd0dfd55	-0.034665424
7	0xbe5dd6b2	-0.21663931
8	0x3e8f7040	0.28015327
9	0xbd155140	-0.03645444
10	0x3db7f52d	0.089823104
11	0x3dd12d90	0.102137685
12	0xbe80ba68	-0.25142217
13	0x3e4f4009	0.20239271
14	0x3e3d50d8	0.1848787
15	0x3c0ce9e1	0.008600683
16	0x3e1d5146	0.15363035
17	0xbe4c4944	-0.19949824
18	0x3e498ec6	0.1968337
19	0xbd305ad9	-0.04305539
20	0x3d908301	0.07056237
21	0x3df07628	0.117412865
22	0x3dc8a9a1	0.09797979
23	0x3d862231	0.0654949
24	0xbbf2f72b	-0.0074147186
25	0xbd9d7f00	-0.07690239
26	0xbc15071b	-0.009095932
27	0xbda34745	-0.07972578
28	0xbcc53859	-0.02407472
29	0xbd92439d	-0.071418025
30	0x3d0db0dc	0.034592494
31	0x3e148a73	0.14505939
32	0x3dd4ced7	0.10391014
33	0xbe191ff0	-0.1495359
34	0xbd98852e	-0.07447277
35	0xbec92f85	-0.39294067
36	0x3d34164d	0.04396658
37	0xbe15bc4a	-0.14622608
38	0x3e4d14f0	0.20027518
39	0x3e915f3a	0.28392965
40	0xbdcf495e	-0.101214156
41	0x3dcb345a	0.09922095
42	0xbe12c10e	-0.14331457
43	0xbdf4ab3e	-0.11946724
44	0xbdce10af	-0.10061776
45	0xbdeb4a9d	-0.11488841
46	0x3d83e7c8	0.06440693
47	0xbe5bdc29	-0.21470703
48	0x3e097dcb	0.13426892
49	0x3e4c944a	0.19978443
50	0x3e49df04	0.1971398
51	0xbca154e6	-0.019693803
52	0x3e4eae9b	0.20183794
53	0xbcc22e9f	-0.023703871
54	0xbe1c24b8	-0.15248382
55	0x3cd99843	0.026561862
56	0xbc8779ef	-0.016537635
57	0xbe5b1346	-0.21394071
58	0x3c8a009c	0.016845994
59	0xbe1f6ddc	-0.15569252
60	0xbd16b2ec	-0.036791727
61	0x3e117b47	0.14207183
62	0x3e136161	0.14392616
63	0x3c9acdfc	0.01889705
64	0xbe95a146	-0.29224604
65	0x3dee2634	0.116283804
66	0xbdf92f3f	-0.121672146
67	0xbd930f02	-0.07180597
68	0x3e08ed67	0.13371812
69	0x3d88c9c4	0.06679109
70	0xbee4d4f6	-0.44693726
71	0x3d92d2de	0.07169126
72	0x3cb9d0c1	0.02268255
73	0xbf030972	-0.5118629
74	0x3d9ed0b7	0.07754653
75	0x3c46ab64	0.012125824
76	0x3e9fc857	0.31207535
77	0xbc996a8d	-0.018727565
78	0x3dcebbd9	0.10094423
79	0xbdcdba89	-0.100453444
80	0xbdacb3ff	-0.08432769
81	0xbe7bfaa9	-0.24607338
82	0xbcb47918	-0.022030398
83	0xbce7a5c2	-0.028277282
84	0x3de867fd	0.11347959
85	0xbeb8161b	-0.35954365
86	0xb9dd75a1	-0.00042240045
87	0xbd9cbfee	-0.07653795
88	0x3e98f526	0.29874533
89	0x3da220e5	0.079164304
90	0x3e29d1cb	0.16583936
91	0xbd95eb49	-0.07320268
92	0x3eb0e1b8	0.3454721
93	0x3cb35569	0.021891313
94	0xbdc380a1	-0.095460184
95	0xbdc51318	-0.096227825
96	0xbd99f4dc	-0.07517406
97	0x3dbf33aa	0.09336026
98	0x3e4ff00b	0.20306413
99	0x3dd7ac50	0.10530913
100	0x3cb657f1	0.02225873
101	0x3ebf36a2	0.3734637
102	0xbd2c9c75	-0.042141397
103	0x3ba81480	0.005129397
104	0xbe87dd15	-0.2653586
105	0xbe17f5ec	-0.14839906
106	0xbd554776	-0.052070104
107	0xbe76a10b	-0.2408487
108	0xbe206d18	-0.15666616
109	0xbd3fbc5d	-0.046810497
110	0xbdca1345	-0.098669566
111	0x3d1539db	0.03643213
112	0xbc2094cb	-0.0098011
113	0x3d41bf84	0.047301784
114	0x3dd3d561	0.10343433
115	0xbe9bd084	-0.30432522
116	0xbe44b02c	-0.19207829
117	0xbe27e530	-0.16396022
118	0x3db5f111	0.088838704
119	0x3e60aa50	0.21939969
120	0x3d52fd61	0.051511172
121	0x3e02361b	0.12715952
122	0x3dc21b9d	0.09477923
123	0x3e985415	0.2975165
124	0x3d43f3b4	0.047839835
125	0x3cadd449	0.02121939
126	0xbd5cfe3d	-0.053953398
127	0xbe6bcdde	-0.23027751
128	0xbe72cf13	-0.23711805
129	0x3d856b46	0.065146014
130	0xbe88d3e8	-0.26724172
131	0x3d39df28	0.045378834
132	0xbd2e06a3	-0.042486798
133	0xbe7d612c	-0.247441
134	0x3e08d302	0.13361743
135	0xbc88c899	-0.016697215
136	0x3e0cdae7	0.1375538
137	0xbf001177	-0.5002665
138	0x3cde413c	0.027130716
139	0x3e16506a	0.14679113
140	0x3d2e2dcf	0.042524155
141	0xbda9e762	-0.08296086
142	0x3d398ca1	0.04530013
143	0x3a841106	0.0010075874
144	0x3e00f27f	0.12592505
145	0xbe54e707	-0.20791255
146	0xbcf27bf2	-0.029600117
147	0x3d9ab131	0.07553328
148	0x3d3a0664	0.04541625
149	0xbe5c388d	-0.21505947
150	0xbe8db138	-0.2767427
151	0xbe058714	-0.1303981
152	0x3d52e3f1	0.051486913
153	0xbe041990	-0.12900376
154	0xbdf6a9f0	-0.12044132
155	0xbe51bdfe	-0.20482633
156	0xbdbeb9e7	-0.09312802
157	0xbe5f17b7	-0.2178639
158	0xbe9a22ff	-0.30104825
159	0x3de09f69	0.10967905
160	0x3de60841	0.11232043
161	0xbcccb5a5	-0.024988959
162	0x3e566869	0.20938267
163	0xbce60d90	-0.028082639
164	0xbdd213e4	-0.102577
165	0xbd963e93	-0.07336154
166	0xbeb5cccf	-0.3550782
167	0x3d8142a6	0.0631154
168	0xbe286a29	-0.16446747
169	0xbe8d6d14	-0.27622283
170	0xbdd0ba2d	-0.1019176
171	0x3d87d66a	0.06632693
172	0x3e42ece1	0.19035675
173	0x3e7853ce	0.24250719
174	0x3bd7c8e4	0.0065852273
175	0xbdb587b1	-0.08863772
176	0xbdd43bc5	-0.10362963
177	0xbdbd19fe	-0.09233473
178	0x3eb0a9c9	0.34504536
179	0x3cedb7a6	0.029018234
180	0xbd8ec818	-0.069717586
181	0x3e0b6081	0.13611032
182	0x3e1ae879	0.15127744
183	0x3e405219	0.18781318
184	0x3e633919	0.2218975
185	0x3ce9123f	0.028451083
186	0xbe1f20cb	-0.15539853
187	0xbe01d929	-0.12680496
188	0xbdf35554	-0.118815094
189	0x3dd6fb20	0.10497117
190	0x3b96dd83	0.004604043
191	0xbd6ef0ec	-0.05833523
192	0x3d85c8a9	0.065324135
193	0x3dc123d8	0.09430665
194	0xbe1d0e7a	-0.15337554
195	0xbe286c35	-0.16447528
196	0xbf18c629	-0.5967737
197	0xbd2956cb	-0.041342538
198	0xbdb2e3ae	-0.08734833
199	0xbd59ac37	-0.053142752
200	0xbd8e5693	-0.069501065
201	0x3db6f55d	0.08933518
202	0x3e90468f	0.28178832
203	0xbe80bd2b	-0.25144324
204	0x3e3bb4de	0.18330714
205	0xbe1ff556	-0.15620932
206	0xbea2fd1b	-0.3183373
207	0x3e0ca028	0.1373297
208	0x3e83de5b	0.2575558
209	0xbd8fa9ec	-0.07014832
210	0x3db3118a	0.0874358
211	0x3a928d20	0.0011180975
212	0xbe8cf708	-0.2753222
213	0x3cb5b730	0.022182077
214	0xbc4731fb	-0.012157912
215	0x3da18b24	0.07887867
216	0xbe9b573b	-0.3033999
217	0xbd64f443	-0.05589701
218	0xbe0dd29d	-0.13849874
219	0xbdb8725b	-0.090061866
220	0x3984b0c3	0.000253087
221	0xbe2a969f	-0.1665902
222	0x3dfedd8f	0.12444603
223	0x399bbdbf	0.00029705276
224	0x3d8f7b52	0.07005943
225	0x3ddf0069	0.1088875
226	0xbdef2132	-0.116762534
227	0x3df4c62e	0.11951862
228	0x3d4ef0ab	0.050522488
229	0xbe90e263	-0.2829772
230	0x3c5e1a37	0.013556055
231	0x3d4555bf	0.048177477
232	0x3bae8501	0.005325914
233	0xbe68ac1e	-0.22721907
234	0xbe2aa8d8	-0.16665971
235	0xbe9cbb4d	-0.3061165
236	0xbcdaed13	-0.026724374
237	0xbdf49d87	-0.119441085
238	0xbe05bfb8	-0.13061416
239	0x3e3a16a1	0.18172695
240	0x3d556e78	0.052107304
241	0x3e54d4ae	0.20784256
242	0xbdb37961	-0.087633856
243	0xbdbd69c5	-0.092486896
244	0x3e8e4eb9	0.27794436
245	0x3e470a6c	0.1943757
246	0xbd7ae3c3	-0.061252367
247	0xbdf54257	-0.11975544
248	0x3dd00aad	0.10158286
249	0x3da196de	0.07890104
250	0x3d07ddfb	0.03317068
251	0xbe9d272a	-0.30693942
252	0x3e3270cb	0.1742584
253	0x3dae0c06	0.08498387
254	0xbd5f994c	-0.054589555
255	0xbe31d5ce	-0.17366716

fc2.bias f4 [128]
0	0xba8d3ae3	-0.0010774996
1	0xbbcacd95	-0.006189058
2	0xbc96e57c	-0.018419974
3	0x3bfdd282	0.0077460418
4	0x3c25ef85	0.010127907
5	0x3d2576ca	0.04039649
6	0x3c59ce08	0.013293751
7	0xbbd4cbe2	-0.0064940313
8	0xb8cc1495	-9.731312e-05
9	0xbd61fca9	-0.055172596
10	0x3d8a62a5	0.06757096
11	0xbd9a9ed6	-0.07549827
12	0xbc8f5f2b	-0.017501434
13	0xbd81552b	-0.063150726
14	0xbce70c4f	-0.028204111
15	0x3da9f949	0.082995005
16	0xbd882c38	-0.06649059
17	0x3c07a31f	0.008278637
18	0xbd700bc7	-0.05860498
19	0xbc6c3f93	-0.014419454
20	0x3c61af33	0.013774681
21	0x3bd895e2	0.0066096643
22	0xbda7bbc8	-0.08190113
23	0x3c96bdeb	0.018401107
24	0xbc44c093	-0.012008804
25	0x3c498f86	0.012302285
26	0x3ca99e17	0.020705266
27	0x3d5b1389	0.053485427
28	0xbc48879b	-0.012239362
29	0x3d692bf6	0.05692669
30	0xbd932d3a	-0.07186361
31	0xbdbde056	-0.09271304
32	0x3d2e9558	0.042622894
33	0xbd966d45	-0.0734506
34	0x3d1725b8	0.036901206
35	0xbd2f5e9a	-0.04281483
36	0x3b422a8e	0.0029627415
37	0x3d3b1378	0.045672864
38	0x3baab165	0.0052091354
39	0x3bc95b57	0.0061449218
40	0x3dbd090b	0.092302404
41	0x3d336d59	0.043805454
42	0x3bda1158	0.0066548996
43	0xbd89ecd0	-0.067346215
44	0x3d82675b	0.0636737
45	0xbd90c79d	-0.07069323
46	0xbd5b0dad	-0.05347984
47	0xbc8eacf9	-0.017416464
48	0x3ce0cf8e	0.02744272
49	0x3da550e5	0.0807207
50	0xbbf106e1	-0.0073555564
51	0x3cb56796	0.02214412
52	0xbcee96b3	-0.029124593
53	0x3d6c54f1	0.057698194
54	0xbd9dcb27	-0.07704764
55	0x3b66c3ee	0.0035211998
56	0xbd5597cd	-0.05214672
57	0x3dabf102	0.08395578
58	0x3cb18e5b	0.021674326
59	0xbce47ee7	-0.027892543
60	0xbd03e91c	-0.032204732
61	0xbdc7b151	-0.09750617
62	0xbd608dc1	-0.054822687
63	0x3bb980b8	0.0056610964
64	0x3cd3254d	0.025774622
65	0x3c6acecf	0.014331534
66	0xbcdf0a43	-0.027226573
67	0xbda363a0	-0.07977986
68	0x3d9ef986	0.077624366
69	0xbd3d835a	-0.046267845
70	0xbdb8080b	-0.08985909
71	0xbcb8a561	-0.022539796
72	0xbd9a4bc0	-0.075339794
73	0xbdf600f2	-0.12011899
74	0x3d9a6ce7	0.07540303
75	0xbd8dc61b	-0.06922551
76	0xbda48c90	-0.08034623
77	0xbdb52514	-0.08844963
78	0xbd281d97	-0.041043844
79	0xbdab57f5	-0.08366386
80	0xbd94004f	-0.07226621
81	0xbdb9ea7f	-0.0907793
82	0x3dcc17f7	0.099655084
83	0x3d1f1d38	0.038846225
84	0xbd9bbeef	-0.07604777
85	0xbc1829f2	-0.009287344
86	0xbcab9c44	-0.020948537
87	0xbd67fce5	-0.056637663
88	0xbd60f1de	-0.054918163
89	0x3d0d609b	0.03451596
90	0xbd7605d4	-0.060064152
91	0xbb2309b4	-0.002487761
92	0x3cc88918	0.024479434
93	0xbd79b913	-0.060967516
94	0x3b966afb	0.00459039
95	0x3c9cd83b	0.019146075
96	0xbbaa2997	-0.005192946
97	0xbdccd933	-0.10002365
98	0x3c5a04bf	0.013306796
99	0xbd02fea5	-0.03198113
100	0x3d6efb7c	0.058345303
101	0xbb813ca2	-0.0039439956
102	0x3d0493b8	0.032367438
103	0xbc66c5e0	-0.014085263
104	0xbd192154	-0.0373853
105	0xbd7ff8e6	-0.062493227
106	0x3d1eacc9	0.038739
107	0x3d34c8a0	0.044136643
108	0x3da81a3c	0.08208129
109	0x3be6886c	0.0070353057
110	0x3c8d892f	0.017277328
111	0xbd8dbf34	-0.06921235
112	0x3a6d98ae	0.00090635836
113	0x3acde874	0.0015709535
114	0x3d92f025	0.0717471
115	0xbcad45fc	-0.021151535
116	0xbd35bf9f	-0.044372197
117	0xbd6adfa5	-0.05734219
118	0xbc914b7e	-0.017736193
119	0xbcb43e5f	-0.022002397
120	0x3d97f288	0.07419306
121	0x3d23a9e0	0.039956927
122	0xbdb256a1	-0.087079294
123	0x3db6d017	0.08926409
124	0x3d67363a	0.0564482
125	0xbd015769	-0.0315775
126	0x3c65ddaa	0.0140299
127	0x3c5a53e6	0.013325667

fc3.weight f4 [4, 128]
0	0x3f3dcba7	0.74138874
1	0x3ecbc5c6	0.39799327
2	0x3e9815ee	0.2970423
3	0xbe7783db	-0.24171393
4	0xbd1c988b	-0.038231414
5	0xbf1ef077	-0.6208567
6	0xbe94ff71	-0.29101136
7	0x3ed50b12	0.41610008
8	0xbe8d12ef	-0.27553508
9	0x3db4509e	0.08804439
10	0x3d8939ac	0.06700453
11	0xbe7314d0	-0.23738408
12	0xbe11eb4e	-0.14249918
13	0x3e7d5e63	0.24743037
14	0xbe31c9aa	-0.17362085
15	0x3dc480f0	0.095949054
16	0x3f4b7769	0.7947908
17	0xbe696ccd	-0.2279541
18	0xbf0d74a8	-0.5525613
19	0x3da7f6a4	0.0820134
20	0xbe645c94	-0.22300941
21	0x3f00fbfc	0.503845
22	0xbd5fd661	-0.054647807
23	0x3e765ace	0.24058077
24	0x3df95ad1	0.12175525
25	0x3dbe67b9	0.09297127
26	0x3e3fe79f	0.187407
27	0x3f560428	0.8360009
28	0xbca41ce5	-0.02003331
29	0xbee37a12	-0.4442907
30	0xbdfed3b5	-0.12442724
31	0x3e29adb7	0.16570173
32	0xbe8cbd21	-0.27488044
33	0xbe9597c6	-0.29217356
34	0x3ea00ae0	0.31258297
35	0x3dd18720	0.10230851
36	0xbe70a2bb	-0.23499577
37	0x3b456ec4	0.0030125836
38	0x3d2b023b	0.041750174
39	0x3e2fb7c1	0.1715994
40	0x3dbdb820	0.09263635
41	0x3da84ff1	0.082183726
42	0xbe3f4d18	-0.18681753
43	0xbc9aadf6	-0.01888178
44	0x3d3d46a6	0.046209954
45	0xbef91f53	-0.4865671
46	0x3e4577f5	0.19284041
47	0xbe8f4ee2	-0.2798987
48	0xbeadea30	-0.33967733
49	0xbd9bb10b	-0.07602128
50	0x3e891ba8	0.26778913
51	0xbe8bc895	-0.2730147
52	0xbe60f375	-0.21967871
53	0x3d55775e	0.05211579
54	0x3f50a43f	0.8150062
55	0x3d0e520b	0.03474621
56	0x3e6c78cb	0.23092954
57	0x3f0489c4	0.51772714
58	0xbe8dd715	-0.27703157
59	0x3ec95d72	0.39329106
60	0xbe93d9c5	-0.28877082
61	0xbef92557	-0.486613
62	0xbf0ec4d2	-0.55769074
63	0x3e8de2af	0.27712008
64	0x3ee62b26	0.44954795
65	0xbcf5b9f0	-0.029995888
66	0xbebc791c	-0.3681115
67	0xbeb9cdf0	-0.3628993
68	0x3d9820c8	0.074281275
69	0x3c5e6ac9	0.013575264
70	0x3ebad95a	0.3649395
71	0x3ec28b50	0.37996912
72	0xbeb9755f	-0.3622236
73	0x3d8e7a6e	0.06956945
74	0x3f289e32	0.65866387
75	0xbe2259b3	-0.1585453
76	0xbd99e7dd	-0.075149275
77	0x3f0c0d69	0.5470796
78	0x3ef8a0ad	0.48560086
79	0x3e8ccbee	0.27499336
80	0x3e2a4a01	0.16629793
81	0x3eb4b634	0.3529526
82	0xbdcf0efa	-0.101102784
83	0x3c9f959a	0.019480515
84	0xbdf679ae	-0.12034927
85	0x3e96fe41	0.29490855
86	0xbeafb110	-0.34314775
87	0xbeb9b108	-0.36267877
88	0xbe8792d2	-0.26479203
89	0x3f634dcf	0.887906
90	0x3f2436e0	0.6414623
91	0xbe0b71ab	-0.1361758
92	0xbef759d5	-0.48310724
93	0xbdd75e38	-0.10516018
94	0xbdd03f04	-0.10168269
95	0x3ec7853c	0.38968837
96	0xbd93ad5b	-0.07210799
97	0x3f058c8b	0.52167577
98	0xbeb7081e	-0.3574838
99	0x3ea5e7fc	0.32403553
100	0xbdd2b0f4	-0.102876574
101	0xbe3cc781	-0.1843548
102	0x3ebbde89	0.36693218
103	0xbec464be	-0.3835811
104	0xbe477d58	-0.19481409
105	0x3efc632a	0.49294406
106	0xbc066c78	-0.008204572
107	0xbd2a3099	-0.041550253
108	0x3dd4b620	0.103863
109	0xbe13ad44	-0.14421564
110	0xbe945986	-0.2897455
111	0x3ea40cab	0.32040915
112	0x3f098f23	0.53734034
113	0x3ed58cf4	0.417091
114	0x3e7d812e	0.2475631
115	0x3e33ebb8	0.17570388
116	0xbdc70438	-0.097176015
117	0xbeda2fa4	-0.42614472
118	0x3db0d258	0.0863387
119	0x3e08a736	0.13345036
120	0xbea387a6	-0.3193943
121	0xbeb13aaf	-0.34615085
122	0xbd36a265	-0.044588465
123	0xbd66d275	-0.05635305
124	0xbc3c418b	-0.011490236
125	0xbe2dfde8	-0.16991389
126	0x3dffb089	0.12484843
127	0x3db57b61	0.08861423
128	0x3e7f598f	0.24936508
129	0x3e30c73d	0.17263503
130	0xbebd7332	-0.3700195
131	0xbe3ca4d0	-0.18422246
132	0xbdc7b42d	-0.09751163
133	0x3ed3a23c	0.41334713
134	0x3eb978f0	0.3622508
135	0x3ecffcd6	0.40622586
136	0xbd9d2a83	-0.07674124
137	0xbdb5baaa	-0.08873494
138	0xbea891aa	-0.32923633
139	0xbe84f145	-0.25965324
140	0x3dc5d72e	0.09660183
141	0x3f03ccad	0.51484185
142	0x3f360a08	0.71109056
143	0xbe5b51cd	-0.21417923
144	0x3db12650	0.08649886
145	0x3df1b8d5	0.11802832
146	0x3f10b28f	0.5652246
147	0xbe5dd644	-0.21663767
148	0x3e45ad99	0.19304504
149	0x3f79717d	0.97438794
150	0x3f08872f	0.53331274
151	0x3ecd8480	0.40140152
152	0xbc9b32c1	-0.0189451
153	0x3d849cdb	0.0647523
154	0x3ed1862b	0.40922675
155	0x3e765616	0.24056277
156	0x3edae3ee	0.42752022
157	0x3d45abce	0.04825955
158	0x3eab23d2	0.33425766
159	0xbe7e1e55	-0.24816258
160	0x3e1f0b61	0.15531684
161	0xbe413237	-0.18866812
162	0x3d8bb846	0.06822257
163	0x3e25dab8	0.16196716
164	0xbd383ac8	-0.044977933
165	0xbebf8b43	-0.37410936
166	0xbd5ae2c3	-0.053438913
167	0x3da28e33	0.079372786
168	0xbe056eda	-0.13030568
169	0xbdf02490	-0.11725724
170	0xbe039e01	-0.12853242
171	0xbbe25bf2	-0.0069079334
172	0x3f20baa7	0.6278481
173	0xbd6c667f	-0.057714935
174	0x3efef656	0.49797314
175	0x3e7a22ec	0.24427384
176	0x3e0c88bd	0.13724037
177	0xbde84218	-0.113407314
178	0xbd190f96	-0.03736838
179	0x3de189a0	0.11012578
180	0x3e35f5e4	0.17769581
181	0xbec2c249	-0.38038853
182	0xbc0858ed	-0.008321983
183	0x3e6241c0	0.22095394
184	0xbe1f2b29	-0.15543808
185	0xbeaac229	-0.33351257
186	0x3ec23147	0.3792822
187	0x3eccbb2a	0.39986545
188	0x3f45ddad	0.77291375
189	0x3e7c98c7	0.24667655
190	0x3eaf4bbb	0.34237465
191	0x3e22e94d	0.1590931
192	0x3e8ced85	0.27524963
193	0xbdc6cd07	-0.097070746
194	0x3dba3d1a	0.090936854
195	0x3e61c417	0.22047459
196	0x3e88d0fe	0.26721948
197	0x3e9c2a1e	0.30500883
198	0x3b9d3c9f	0.0047984864
199	0xbda6364e	-0.081158265
200	0xbccc3dc3	-0.024931794
201	0x3df0b9ba	0.117541745
202	0x3f0c8518	0.54890585
203	0xbe8eb365	-0.27871242
204	0xbf33e023	-0.7026388
205	0xbdd61c8d	-0.104546644
206	0x3e5e64cf	0.21718143
207	0xbda0b0a6	-0.07846193
208	0x3db34947	0.08754211
209	0xbc4f12f0	-0.012638792
210	0xbe3eed36	-0.18645176
211	0xbe01c87e	-0.12674138
212	0xbe3ded2a	-0.18547502
213	0xbe43dcb6	-0.19127163
214	0x3e2c5a80	0.16831398
215	0x3e1a9863	0.15097193
216	0x3f1760b6	0.59131944
217	0x3f022d4b	0.5085036
218	0xbeb40ba8	-0.35165143
219	0x3e2077f7	0.15670763
220	0xbe1a5bb6	-0.15074047
221	0xbe330069	-0.17480625
222	0xbe338da7	-0.17534505
223	0xbc53bddd	-0.012923685
224	0x3f393ae8	0.7235551
225	0xbe864379	-0.26223353
226	0xbe7f529f	-0.24933861
227	0xbe530c5c	-0.20610183
228	0xbd8ce55a	-0.06879683
229	0xbe3f9042	-0.18707374
230	0xbd573247	-0.052538183
231	0x3d9524d8	0.07282418
232	0xbdabb197	-0.08383482
233	0x3f0677a6	0.5252632
234	0x3e1d1bae	0.1534259
235	0xbc6c87df	-0.014436691
236	0xbe0af5c2	-0.13570312
237	0xbe23f1c7	-0.160102
238	0xbedecb32	-0.435144
239	0xbe3400a7	-0.17578374
240	0xbe1c71ab	-0.15277736
241	0xbe86453f	-0.26224706
242	0xbd62d950	-0.055383027
243	0x3f0df558	0.5545249
244	0x3ea0e653	0.31425723
245	0x3e657b35	0.22410281
246	0xbe15bfa4	-0.14623886
247	0xbe1ccd68	-0.15312731
248	0xbd1830ec	-0.03715603
249	0xbe05bbad	-0.13059874
250	0x3fa49d49	1.28605
251	0xbe40e8a6	-0.18838748
252	0xbddcd156	-0.10782115
253	0x3e864cc1	0.26230434
254	0x3e6e4a8a	0.23270622
255	0xbdb02364	-0.086005

fc3.bias f4 [4]
0	0x3cf873af	0.0303286
1	0xbdcdcee1	-0.10049225
2	0xbc186178	-0.009300582
3	0xbd7ef2eb	-0.062243383
