critic_solved.pth (torch_old, 169953 bytes, 5 tensors)

fc1.weight f4 [256, 33]
000000 1a 36 98 bd 6f 5f 1e 3d 9d 9e 3a 3d 15 4c 7c bd
       -0.07432194 0.03866523 0.04556142 -0.061595995
000010 44 e7 18 be ff 71 89 3d 32 2d c3 3c 01 b3 2c bd
       -0.14931971 0.06711196 0.023825262 -0.0421629
000020 f4 26 a2 bd 35 c2 d2 bc a4 58 bb bc 36 8d 8b 3d
       -0.07917586 -0.02572737 -0.022869416 0.06814043
000030 1b 34 4d 3d 91 8f 8f bd b6 1d 34 3d 34 4e 26 bc
       0.05009852 -0.07009805 0.043973647 -0.010150481
000040 2c d9 8e bd 2d 7f 31 3d 9a b9 1f 3d 12 35 0f bd
       -0.06975016 0.043334175 0.038995363 -0.03496272
000050 b4 bf a3 3c f6 c1 2e 3b 88 9e 16 bd f5 0f be bd
       0.019988872 0.0026665903 -0.03677228 -0.09280387
000060 c7 32 04 3d 52 52 83 bd 82 d5 30 3d b5 b2 9b 3c
       0.032274988 -0.06412186 0.043172367 0.019006113
000070 3a bf 97 3d ac 88 90 bc bf d0 9e bd 64 ec 82 bc
       0.074095204 -0.017643295 -0.07754659 -0.01598186
000080 a1 54 73 bd 39 80 2c 3c 57 24 5a 3d b5 cd a2 3d
       -0.05940688 0.010528618 0.053257313 0.07949392
000090 55 88 4a bc 6f 04 72 3d 33 6b 9f 3d c5 d1 d0 3d
       -0.012361606 0.05908626 0.077841185 0.1019626
0000a0 b4 ee c5 3d 48 62 9d 3c b2 41 02 3e e7 4a 0d bc
       0.0966467 0.019211903 0.12720373 -0.008623815
0000b0 42 cc 5b 3d 35 d2 98 3c 1e ca 51 3d 09 83 84 bc
       0.053661592 0.018654922 0.051218145 -0.016175764
0000c0 72 71 96 bd 0f c4 ab 3b dc 4c 15 3d 87 5a fa 3c
       -0.07345857 0.005241878 0.036450252 0.030560745
0000d0 7d 48 25 3d d6 70 82 bb 66 2f a9 3d 5f d2 eb bc
       0.040352333 -0.0039807362 0.08260994 -0.028786836
0000e0 15 3e cf bd 20 7b 49 bd 1c 2e bb bd 1e c8 64 3c
       -0.10119263 -0.049189687 -0.09139654 0.013963727
0000f0 88 bc dd 3d 76 b0 6a 3d d4 55 d5 bc 04 d0 eb bd
       0.10826975 0.057297193 -0.026041903 -0.11514285
000100 70 25 c1 bb 9f 2d 90 3c 45 70 c2 3d ad 87 e0 bc
       -0.0058943555 0.017599879 0.0949407 -0.027408445
000110 d8 b6 ae 3c 61 50 1d 3b ff 91 a0 3d bf 79 f0 bd
       0.021327421 0.0024004208 0.078403465 -0.11741971
000120 ae 47 13 bd 0e fa a9 3c f5 7a ad bd 6b cb 17 bd
       -0.03595703 0.020749118 -0.08470718 -0.03705923
000130 b7 12 a9 3c c3 b5 af 3b 25 be 43 bd 39 53 a6 bd
       0.020638807 0.005362244 -0.047788758 -0.08121342
000140 20 95 80 3d c1 5b e2 bc 78 d7 7a 3c aa 5c 07 bd
       0.06278443 -0.027631642 0.015310161 -0.033047356
000150 7e 9b 90 bc b2 40 13 3d 16 bb da bb ae 4d ef 3c
       -0.01765227 0.03595037 -0.0066751344 0.029211845
000160 56 be d1 bc 6f e2 d1 3b 4a 9e 5e 3d 33 64 5c bd
       -0.025603455 0.006405167 0.054350175 -0.053806495
000170 81 e9 e3 3d f8 a6 81 3d 17 e2 9c bc 34 23 7e bd
       0.11128522 0.06330675 -0.019150777 -0.06204529
000180 d6 fd b0 bc da 5b 3e bd b5 ea eb be 17 fe 40 3d
       -0.021605413 -0.046474315 -0.46077505 0.04711732
000190 58 13 34 3d cb be cf 3b 25 61 a7 3d b3 b4 ba 3d
       0.04396376 0.006339883 0.08172826 0.09116497
0001a0 b4 c3 e8 3d d7 ae 24 3d 64 ce 17 b9 76 18 03 bd
       0.113654524 0.040205803 -0.00014477369 -0.03200575
0001b0 2e dd 17 bd 5b a2 cc 3b 50 93 35 3d 4b ed ad bc
       -0.037076168 0.00624494 0.04432994 -0.021231314
0001c0 27 c4 32 bd 2c 5e 3b 3c 78 36 6d bc 2f fc 90 3d
       -0.043644097 0.011436027 -0.014478318 0.0707935
0001d0 a9 a0 53 3d ab 98 19 3d fc 3a 82 bb 71 7b b1 bb
       0.05166689 0.03749911 -0.0039743166 -0.0054163267
0001e0 15 f5 1e bd 7b 21 34 3d ce 57 b1 bd a4 61 ac bb
       -0.038807947 0.043977242 -0.086593255 -0.005260663
0001f0 b9 cf c5 bd 7b d8 90 bc 7a d4 24 3a 1e a9 69 bd
       -0.096587606 -0.017681351 0.0006287765 -0.05704605
000200 c8 5f 41 bd 6e ae 20 3c 00 82 64 39 e9 9a f7 be
       -0.047210485 0.009807212 0.00021792203 -0.48360375
000210 b6 0d 66 3c 99 32 49 bc f0 6c a0 3c 50 79 11 bd
       0.014041355 -0.01228013 0.019583195 -0.035516083
000220 f5 24 68 3c 33 62 e1 3d 83 9c 5d bd a1 7e e1 3d
       0.0141689675 0.11005058 -0.05410434 0.11010481
000230 51 53 f6 bc 47 dc 06 ba 2f 84 49 3d 19 40 80 bc
       -0.030069025 -0.0005144518 0.049198326 -0.015655564
000240 2b 02 62 bc 1a 7f e5 3b f1 a5 5a 3d 72 7d d1 bc
       -0.013794462 0.007003677 0.05338091 -0.025572512
000250 7f b0 65 3c 60 23 5e 3c ba 75 72 bc 72 6b 18 bc
       0.014019131 0.013558239 -0.014798576 -0.009302961
000260 6b e7 b2 bc 0a fd a9 3c 58 ca 4a bd 28 84 8e bd
       -0.021838864 0.020750541 -0.049509376 -0.069588006
000270 b7 45 f7 3a 0c cb a9 3b 16 0e 97 bd ad a2 19 bd
       0.0018865381 0.005181676 -0.073757336 -0.037508655
000280 61 74 c5 bd 50 05 0a bc c1 1c 3a bd e0 a0 21 3b
       -0.09641338 -0.008424118 -0.045437578 0.002466254
000290 93 83 a7 bd d0 b7 8f 3c a2 b7 e8 3d 23 78 d1 bd
       -0.08179393 0.017543703 0.1136315 -0.102279924
0002a0 8a 7a 72 bd f7 dd 01 3d aa 65 b9 3d 74 01 d6 bd
       -0.059198894 0.031705823 0.09052594 -0.10449496
0002b0 14 99 c3 3d a2 d5 49 3d f9 28 7f bd 93 85 98 3d
       0.09550682 0.049276 -0.062294934 0.07447352
0002c0 7a 17 bd 3b b3 ee 51 3b c9 6f 2e 3c 57 60 88 bc
       0.005770621 0.0032033145 0.010646769 -0.0166475
0002d0 c5 cf ff 3c 3d b6 16 3e b1 ce a3 bd 45 3a 0b 3e
       0.031227002 0.14717956 -0.07998408 0.13596447
0002e0 1c 78 a2 3c 38 ff fb 3c 09 5f bc 3c ce 8d 4e bd
       0.019832663 0.030761346 0.022994535 -0.050428204
0002f0 b4 4b bf bb 57 05 30 bc a2 56 b7 bd f7 2d 2a bc
       -0.005837882 -0.010743461 -0.08952071 -0.010386935
000300 4a 28 62 3c aa 24 9d 3d f8 41 79 bc a7 5e 05 bd
       0.013803551 0.07673009 -0.015213482 -0.03256097
000310 f4 e7 13 bd 2d 8d 6b be be d1 1a 3e b2 45 bb bd
       -0.03610988 -0.23003073 0.15119073 -0.09144153
000320 b4 97 9f bb cd 97 4b bd a8 e8 05 3e bb f2 04 be
       -0.0048703793 -0.049705315 0.13077033 -0.1298322
000330 14 4d 4f 3d f9 1b 1c bd 80 bb 6e bd 61 90 21 3e
       0.050610617 -0.038112614 -0.058284283 0.15777732
000340 29 4f 68 3d 0c d8 ba bc c1 69 a8 bd 40 27 52 bc
       0.056716118 -0.022808097 -0.08223296 -0.012826741
000350 f1 d8 e7 3c c2 27 68 bd d0 92 e0 bd 76 8a e2 3c
       0.028301688 -0.05667854 -0.10965502 0.027653914
000360 9e ed cd 3c f0 e4 b7 bc e1 35 6e bd 2f 64 b1 3b
       0.025137719 -0.022448033 -0.05815685 0.005413554
000370 03 59 af bd 61 58 b7 3c 8e 9c 11 3d 3a f5 3d bc
       -0.085618995 0.02238101 0.035549693 -0.011594111
000380 ed 28 22 bd 1a 87 c3 bc 18 f5 74 3c 56 ee 04 3d
       -0.03958981 -0.023868132 0.014951013 0.032453857
000390 0e 9b c0 3c e4 a5 d7 3c 48 ec 8f 3d 57 00 cc 3d
       0.023511436 0.02632422 0.07027489 0.09961002
0003a0 89 bd 81 3b f4 ca ac 3d 78 22 f0 bc 0a 13 19 bd
       0.003959362 0.08437148 -0.029313311 -0.037371673
0003b0 cb 49 06 bd 34 56 67 bc 8b d5 55 bc f0 96 26 bc
       -0.03278522 -0.0141196735 -0.013051401 -0.010167822
0003c0 82 16 ca 3c f2 ff 82 3b fa 58 9f bc 5e 49 62 3c
       0.024668936 0.003997796 -0.019451607 0.013811437
0003d0 88 cd 09 be b0 83 ec bc 0f c7 18 be 5b 3b 76 3c
       -0.1345731 -0.028871387 -0.14919685 0.0150288
0003e0 92 4c 7b 3a 11 e8 b9 3c 7c fa 12 3d b3 e6 f3 39
       0.00095863 0.022693666 0.03588341 0.00046520456
0003f0 02 a1 91 ba 24 77 1f 3c 84 ea 67 bd fe de 62 bc
       -0.0011110606 0.009732995 -0.056620136 -0.013847111

fc1.bias f4 [256]
000000 5f 1d c8 bd f0 0d 1b be af a9 d2 3d 1f a9 81 bd
       -0.09771227 -0.15142035 0.10286271 -0.063310854
000010 48 e4 bb 3d 7a f3 59 bd 05 fd 3a be e6 45 86 3b
       0.091744006 -0.053210713 -0.18260582 0.004097688
000020 e2 7c 19 3e 05 4c 5b 3e 7c 96 3e be 75 e7 c0 3d
       0.14989045 0.21415718 -0.18612093 0.09419147
000030 32 6a 87 bd 2c 64 4a 3d f2 04 3f 3e 62 14 2a 3e
       -0.06612052 0.049411938 0.1865423 0.16609338
000040 ea 8f 18 bc ba a8 7a bc 3d 3d a2 bd db fa 2c be
       -0.009311656 -0.015299017 -0.079218365 -0.16892569
000050 6d d9 f7 3d 6f f6 a1 bd 28 e1 08 3c c7 d0 81 3e
       0.121020176 -0.079083316 0.008354463 0.25354597
000060 61 0d 37 bd 59 2c 42 bd 11 f6 3c 3e fc d9 ce 3d
       -0.044690493 -0.047405574 0.18453242 0.10100171
000070 b0 b1 7f bd c5 d1 04 be 85 0f d9 3c b0 50 a8 bd
       -0.062425315 -0.12970646 0.026496658 -0.08218515
000080 94 d5 e2 3d ab 88 19 be eb 3f 60 bd d8 d8 18 3e
       0.11075893 -0.14993541 -0.054748457 0.1492647
000090 e4 0e 94 bd 65 05 36 be 2b ef 44 3e f1 f4 17 3e
       -0.07229403 -0.17775495 0.1923186 0.14839531
0000a0 ff f6 31 be d3 fb af 3d 91 87 82 3d 66 c3 4d 3e
       -0.17379378 0.085929535 0.063735135 0.2009407
0000b0 ee 60 49 3e 95 29 98 bd a3 05 8f 3d 89 08 79 bd
       0.19665882 -0.07429806 0.06983497 -0.060799155
0000c0 e9 a1 ff 3d 59 40 0d 3e 73 38 0d be 2a ed 8b 3b
       0.12482054 0.13794078 -0.13791065 0.0042702155
0000d0 63 17 ea bd 49 53 06 be c2 86 a4 bd 54 f3 b6 3d
       -0.11430242 -0.13117708 -0.080335155 0.0893313
0000e0 2f 2a 41 3d a5 6a 02 3e e7 8c 7a bd 42 3c c9 3c
       0.04715937 0.12735994 -0.06116953 0.024564866
0000f0 cc 5f 1a 3d 22 35 43 bc 2a 96 ce bb f2 ee 6a bd
       0.037689015 -0.011914523 -0.006304522 -0.057356782
000100 4d 78 a4 3c 14 a0 9f bd 7b a9 e3 3d 71 27 ba bb
       0.020076895 -0.07794204 0.1111631 -0.0056809713
000110 9a 3c 06 bd 95 36 b1 bd 7d dd 16 3e 88 28 13 be
       -0.032772638 -0.08652989 0.14732929 -0.1437093
000120 de ad 86 be bc e0 b8 3c f2 f8 a3 3c 6e 90 ba 3d
       -0.26304525 0.0225681 0.020016167 0.09109579
000130 1d f3 f9 bc 9b 21 0e bc 63 42 52 be 89 7a 5b 3d
       -0.030511433 -0.008675004 -0.20533137 0.053583656
000140 58 27 23 3e 46 01 e3 3c 84 83 04 be cd 0c 42 bd
       0.15932977 0.027710568 -0.12940794 -0.04737549
000150 06 65 f2 3d c7 29 25 3e 38 f4 51 be 9b 90 1a be
       0.11835675 0.16129218 -0.20503318 -0.15094225
000160 67 29 6d 3c 48 bd 44 3d 3d d0 8b bd d5 94 4a 3e
       0.014475203 0.048032075 -0.06826828 0.19783337
000170 e9 74 e5 3d 85 47 0c 3e 60 ce e1 3d 52 03 85 3d
       0.112039395 0.13699158 0.11025691 0.06494774
000180 c1 a9 f5 bd 47 99 cd bd d4 4d 87 bd 54 53 e5 3d
       -0.119952686 -0.10039001 -0.066066414 0.11197534
000190 a6 23 73 3d 4a 83 13 3e 3c 4d f7 bc 98 98 07 bc
       0.05936017 0.14405552 -0.030188195 -0.008276127
0001a0 fc 4f 29 bd 24 89 d7 3c 94 18 03 bd 4c 75 20 3c
       -0.041336045 0.026310511 -0.03200586 0.009793591
0001b0 3d ce 16 3d 75 a3 11 3d e2 9a 40 3e aa 1b 29 be
       0.036817778 0.035556275 0.18809083 -0.16514459
0001c0 2d 47 60 be d6 b1 bb bd fa 3e 5d 3d 62 f6 95 bd
       -0.21902151 -0.09164779 0.054015137 -0.073223844
0001d0 85 e7 62 bd 06 35 79 bd 40 65 3a 3e 5c e5 27 be
       -0.055396575 -0.060841583 0.18202686 -0.16396087
0001e0 07 94 9c 3d 40 97 3d 3e 95 a0 12 bd 45 bc 29 3e
       0.076454215 0.18514729 -0.035797674 0.16575725
0001f0 f5 48 82 3e a1 ab 1a 3e 97 f0 98 bd 10 d7 88 bd
       0.25446287 0.15104534 -0.07467764 -0.06681645
000200 67 15 16 be f7 48 56 be 6b 5f 2a be d5 4c 1e be
       -0.14656602 -0.20926271 -0.16637962 -0.15458997
000210 c7 96 b2 3d 18 07 dd bc f2 01 76 bd ca f0 fa 3d
       0.08720165 -0.026980922 -0.06006045 0.12252958
000220 ab 78 31 bd d2 4d ea bd c5 2f de bd ec 35 9a bc
       -0.04332797 -0.11440624 -0.10848955 -0.01882454
000230 1d e0 4e 3d 15 56 01 bc 34 4d fe 3d 30 9e af bc
       0.0505067 -0.007894059 0.12417069 -0.021437734
000240 e5 e5 29 be 89 31 37 be 5a 88 2b be 47 bb 39 3e
       -0.16591604 -0.1788999 -0.16751233 0.18137847
000250 7d 95 31 3e b5 70 35 be 2b 61 40 be aa 29 78 3b
       0.17342182 -0.17718776 -0.18787067 0.003786663
000260 97 8d 51 3d b4 54 bb bd 49 3c 9d 3c 52 6f 3a bc
       0.05116042 -0.09147015 0.019193785 -0.01137908
000270 5a 65 bf bd da 7e 09 3e 2b d1 01 be 68 e0 96 bd
       -0.09345503 0.13427296 -0.12677447 -0.07367021
000280 44 d8 5b bd 16 1f 1f be 05 0b 25 3d b6 d8 bb 3d
       -0.053673044 -0.15539202 0.040293712 0.09172194
000290 d8 53 af 3d 3b 53 b4 bc 31 48 30 be 76 32 98 bd
       0.08560914 -0.022012344 -0.17215039 -0.074315
0002a0 b0 68 e2 bd a1 5f 01 bd 50 6c 31 3e ec b5 52 3e
       -0.11055124 -0.03158534 0.17326474 0.2057721
0002b0 ad 1e d6 bc ea a9 cc 3d b1 fb 8d bc cf 22 12 3e
       -0.026137674 0.09993346 -0.01733193 0.14271091
0002c0 24 bc 8c bd a1 7e 0b be c9 6c a4 bd 4a 1a b0 bd
       -0.068718225 -0.13622524 -0.080285616 -0.08598764
0002d0 e1 bf b3 bd 90 8e 4a bc 72 4b 33 bc e2 2f da bd
       -0.08776832 -0.012363091 -0.0109432805 -0.10653664
0002e0 ce 4e 81 3d 94 db c3 3d 5d 99 35 3e 0d cd 01 be
       0.06313859 0.095633656 0.17734285 -0.12675877
0002f0 d0 1c f6 bd d7 78 6e 3e b9 6a 43 bd b5 30 03 3e
       -0.12017214 0.23288284 -0.0477092 0.12811549
000300 40 df 3a 3e 53 bb d5 bc 70 51 37 3d ba b4 69 be
       0.18249226 -0.0260903 0.0447554 -0.22822848
000310 78 39 64 3d 2f 0e b8 3c 24 db 69 be 1f 34 b4 3d
       0.05571887 0.0224677 -0.22837502 0.08799004
000320 33 21 8e 3e b3 10 65 3e 7e 15 d8 3d 21 5d 44 3e
       0.27759704 0.22369651 0.10550974 0.19176151
000330 ba 84 37 3d f4 33 cf bd 3e dd fb bd ea c5 40 be
       0.044804312 -0.10117331 -0.12298058 -0.18825498
000340 3d 68 3d 3d 36 bb 1a 3e 8a 5a 28 be bd bd af bb
       0.046241987 0.15110478 -0.16440788 -0.0053631947
000350 63 83 37 be 29 31 e6 3d 6b b0 09 be df d3 49 3d
       -0.17921214 0.11239845 -0.13446204 0.04927432
000360 90 64 75 bd 9d 19 22 be 49 ef fd bc b4 1d 05 3d
       -0.059910357 -0.15830083 -0.03099789 0.03249903
000370 ed ac 8a 3c 5e cb 21 be 61 18 50 3b 18 03 25 be
       0.01692816 -0.15800235 0.0031752812 -0.16114461
000380 ae 32 51 3e 74 ee 23 be b6 f6 cf bd c4 45 dc bd
       0.20429489 -0.16008931 -0.10154478 -0.10755494
000390 f4 b8 78 bd 4e 07 80 bc ac f8 cf 3c ed 69 80 bc
       -0.06072326 -0.015628483 0.02538713 -0.01567551
0003a0 f2 6a 10 be 85 f3 3b 3e 62 0f cf bd d9 d0 90 bd
       -0.14103296 0.18354614 -0.10110356 -0.070710845
0003b0 33 fb d2 3c b8 3a 35 bc 70 84 17 be 81 1a 0d 3d
       0.025754547 -0.011061363 -0.14796615 0.034449104
0003c0 45 e0 2d be 20 58 d2 ba bf 8a c8 bd 54 68 e3 3c
       -0.16980083 -0.0016047992 -0.09792089 0.027759708
0003d0 92 bd 8c 3d 3d d2 09 be 54 40 84 3d 35 81 f8 3c
       0.06872095 -0.13459106 0.06457582 0.030335048
0003e0 f8 ef 94 bb b2 65 f6 3d 52 e5 fc bc 5e 92 f1 bd
       -0.004545208 0.120311156 -0.030871067 -0.117954955
0003f0 b0 23 0d be 58 f7 b9 3d 01 ed 25 be a5 ee b0 bd
       -0.13783145 0.0908038 -0.16203691 -0.08639268

fc2.weight f4 [128, 260]
000000 a7 84 a0 3c d4 e8 6a bd 9b f5 e2 3c 11 23 08 3d
       0.019594504 -0.05735095 0.027705004 0.033236567
000010 b6 dd 0c be 2e 66 63 bd 58 63 73 3d 54 59 48 3d
       -0.13756451 -0.055517368 0.059420913 0.048913315
000020 5e db 84 3c 25 17 ad bd a7 55 61 be 21 46 05 3d
       0.016217884 -0.0845168 -0.2200533 0.032537583
000030 b2 17 82 3d 4b a2 2b 3d f4 0d 9b bd 06 ca bf 3d
       0.06352176 0.04190282 -0.07571021 0.09364705
000040 7d 98 fa bd 8a ea 12 bd 17 69 f7 3c 4e 78 2e 3e
       -0.12236116 -0.035868205 0.030201478 0.1703808
000050 1d b1 89 3c d9 bf ae bc c0 59 e2 bd 19 3f 73 3d
       0.016808087 -0.021331714 -0.11052275 0.059386346
000060 30 62 37 3d ba 1a c3 bc 20 61 ec 3c d4 6e f0 3d
       0.044771373 -0.023816455 0.028854907 0.11739889
000070 14 21 b5 3d 02 7c 75 be 15 29 c2 3d aa 81 1c 3d
       0.088442 -0.23973086 0.09480492 0.038209595
000080 d1 ce e1 bc 4d b9 5e bd 62 04 38 bd 61 82 67 bd
       -0.027564438 -0.054375935 -0.044926055 -0.056520823
000090 72 87 2e 3d e0 ae 21 3e 0b ea 32 bc 52 70 56 3d
       0.04260964 0.15789366 -0.010920058 0.05235321
0000a0 79 8f 66 3d 34 55 93 bd b9 05 84 3d e9 c3 af bd
       0.05628917 -0.071939856 0.06446404 -0.08582289
0000b0 76 cf a0 3d 8e 47 2c 3d 23 23 c2 3d cb ba cd 3d
       0.0785207 0.042060427 0.09479358 0.100453936
0000c0 01 9a a5 3d 14 93 95 bd 11 02 3f bc 2e d1 e0 3c
       0.080860145 -0.073034436 -0.0116582075 0.027443495
0000d0 f2 bc da bd 58 f6 2e 3c e1 70 76 bd ab 0f 6c 3d
       -0.1068057 0.01067885 -0.060166243 0.05763213
0000e0 c6 38 88 3b f2 b7 b8 3d 23 a0 5c 3d e9 b3 b5 3c
       0.0041571585 0.0901946 0.053863656 0.022180514
0000f0 2e 0a d9 bd 04 95 61 bd a9 99 52 bd 5b 13 fa 3c
       -0.10597645 -0.055073753 -0.051416073 0.030526808
000100 d4 45 28 3d e2 07 35 bd 16 57 4c 3d 23 63 0d be
       0.04108222 -0.04419697 0.04988774 -0.13807349
000110 32 41 ba 3d f3 6f a1 bd 4e 80 94 bc 3d d9 db bc
       0.09094466 -0.07882681 -0.018127587 -0.026836986
000120 e4 b6 b4 3d ed 8c c0 3d 31 b8 24 be 06 0a c3 3d
       0.08823946 0.094018795 -0.16085888 0.09523396
000130 19 93 67 3d c0 e6 8f 3c 7a 6f b6 3d e2 5f 21 3d
       0.056536768 0.017566085 0.08907981 0.03939808
000140 a6 3e bb 3c c9 84 b1 bc 58 83 a5 3d 8a 69 a9 bd
       0.022857022 -0.021669762 0.080816925 -0.08272083
000150 62 cd 24 3e e8 80 6b 3d ac 10 1c 3d 83 38 55 bd
       0.16093972 0.05749598 0.038101837 -0.052055847
000160 b0 e6 a2 bd 91 be 84 be f6 86 4a 3d 01 85 1e bd
       -0.079541564 -0.2592664 0.049445115 -0.03870106
000170 76 d0 3d bc 7f b6 82 bd 42 d0 3d 3d 59 06 02 3c
       -0.0115853455 -0.063824646 0.04634119 0.007936084
000180 08 c3 65 bd 44 3b 98 3d 38 da 12 be 8c ac 54 3d
       -0.0560942 0.07433179 -0.14341056 0.051922366
000190 03 be d6 bd f3 ba cd bb 7f 44 3d be 9f a5 f5 3c
       -0.104854606 -0.0062783896 -0.1848316 0.0299862
0001a0 d6 87 0d 3d f9 94 81 bc 86 08 ae bc 69 0d 19 bc
       0.03455337 -0.015818106 -0.021244299 -0.009341576
0001b0 2f 4c df bc ab 6b 18 3d 3b 03 21 bd bb d7 eb 3d
       -0.027258007 0.037212055 -0.03930972 0.11515757
0001c0 ed 3a 12 3c 6e 5e c8 bd f8 4f a0 3d 4a f0 ae 3d
       0.008925182 -0.09783636 0.07827753 0.08541925
0001d0 32 bc 8b 3d 52 ba f1 bb a5 a8 b6 bc 4f a4 0a be
       0.06823005 -0.0073769474 -0.022297213 -0.13539241
0001e0 eb c4 0a 3e 6e 8b 0f bd 87 32 65 3d 03 13 df 3d
       0.1355168 -0.03504508 0.05595639 0.10892298
0001f0 62 35 09 bd 20 c0 a0 3d c4 cf 8b 3d 9c 18 36 be
       -0.033498175 0.07849145 0.068267375 -0.17782825
000200 37 81 80 be 32 c9 f9 bc 7c c8 e7 3d 5b 0f 8a 3a
       -0.25098583 -0.030491445 0.11317536 0.0010533141
000210 9f 67 6d 3d 27 e1 5e bd bb 9f 0e be b8 28 a2 bc
       0.05796015 -0.05441394 -0.1392812 -0.019794807
000220 e2 9f c6 bc 35 33 28 be ca b7 36 3d 28 76 bb 3c
       -0.02424616 -0.16425784 0.04460887 0.02288349
000230 1b d2 fa bc 30 f0 37 3d 1b 64 cf 3c e9 eb 7e 3d
       -0.030617764 0.044906795 0.025316289 0.0622367
000240 61 4a 5e bd 6c c2 07 bc dc ec 49 3d bd 47 67 3d
       -0.054270152 -0.0082861 0.049298152 0.0564649
000250 9d 0e 41 bc 6e 29 87 bc e3 06 38 3e 0c 21 f6 bb
       -0.011783269 -0.016499247 0.17971377 -0.0075112637
000260 17 57 f8 3c b5 84 19 3d 1b b2 33 3c 94 df 2d bd
       0.030314965 0.037480075 0.010967757 -0.04244955
000270 6b 03 bf 3d 3e 17 1d bb 40 9a 85 bd fb 21 81 3d
       0.09326824 -0.0023970152 -0.065235615 0.063053094
000280 78 86 e8 bc 3f bc b8 3b 9e 20 ae bd 46 42 53 be
       -0.028384432 0.005637675 -0.08502315 -0.2063075
000290 39 0a 56 3d c1 b1 42 3d 0a d5 b3 bc c9 62 10 be
       0.052255843 0.0475328 -0.02195217 -0.14100184
0002a0 8e 62 41 bd ab 0f bf 3c 82 61 b5 3d bd 47 8b bd
       -0.04721313 0.0233229 0.08856489 -0.06800792
0002b0 be 65 ba bd 5c 9c 78 bd 94 d8 3f 3d 85 d1 9a 3d
       -0.09101437 -0.06069599 0.046837404 0.07559494
0002c0 da 71 d0 bd 31 a5 3d 3d 1c d6 08 be 29 d1 61 bd
       -0.101779655 0.046300117 -0.13362926 -0.05513111
0002d0 b0 b5 c1 bc 85 43 71 3d bb 8d 17 be 2a d5 9f 3d
       -0.023646206 0.058902282 -0.1480016 0.0780433
0002e0 7f a5 4c 3d 8d 18 98 3c d0 ef 2c 3d 11 17 a0 3d
       0.049962517 0.018566394 0.04222089 0.078168996
0002f0 ac 51 91 3d 30 a7 8e 3d 7b 3d 1b 3d 9d c2 72 bd
       0.07095656 0.06965482 0.03790043 -0.05926763
000300 e5 0a 8d bd a9 9b 53 3d 0e a9 47 3a 37 ac 74 bd
       -0.068868436 0.05166212 0.00076164387 -0.05973455
000310 c5 fe b0 3d d7 fa 38 bc 50 58 d8 bd 7a c9 44 bd
       0.086423434 -0.011290274 -0.10563719 -0.048043706
000320 67 57 74 bd d6 b3 63 3d 6c 91 98 bd 1c 29 33 3c
       -0.059653666 0.055591427 -0.07449612 0.010935094
000330 ed c0 6c be 2d 18 3e bc be 2e 08 3e f6 72 0b be
       -0.2312047 -0.011602444 0.1329908 -0.13618073
000340 78 a0 c9 3b cd e4 8b 3d a9 0a 81 bd ad 0f 68 39
       0.0061531626 0.0683075 -0.063008614 0.00022131084
000350 1b 13 65 be ba de 0a 3c a0 1b ef 3c 45 f1 bb bc
       -0.2237057 0.008475954 0.029187977 -0.022942195
000360 3e cf e4 3d 10 4a 29 bc 26 64 74 3d 0d 33 a4 be
       0.11172341 -0.010332599 0.05966582 -0.320702
000370 c8 80 87 bc 75 e0 2d 3c 7a 92 9c bd e3 71 35 3d
       -0.0165409 0.010612597 -0.07645126 0.044298064
000380 b5 9c a1 bc 87 2a 8e bc 74 a1 5f 3d 91 d0 c0 3c
       -0.019728044 -0.017354263 0.054597333 0.023536952
000390 c9 52 fe bd 98 b5 65 be e9 a4 1e 3e b4 1b 5d be
       -0.12418134 -0.22432554 0.15492596 -0.21592599
0003a0 fb 3e 0c be 14 8f 61 3c 6e 60 ae 3c 00 9b 61 bd
       -0.136959 0.013767023 0.021286216 -0.05507946
0003b0 a1 71 63 3d f8 b3 78 3d 62 bc de 3b 26 32 47 3d
       0.055528287 0.060718507 0.0067973593 0.04863181
0003c0 1f 56 2d 3d bc fc 19 be 20 8a 97 be 76 cd c3 bc
       0.04231846 -0.15037817 -0.2959757 -0.023901682
0003d0 e4 eb bf bd e0 0b a0 3d 0d f1 c5 bd 56 a9 ad bb
       -0.093711644 0.07814765 -0.096651174 -0.0052997274
0003e0 9e e9 b7 bc 4b b1 06 bd 06 a9 af bd 49 4e 3c bd
       -0.022450265 -0.032883924 -0.085771605 -0.045973096
0003f0 7e 7f 5a bd 5a 39 e9 bd 86 cf ce bd 28 93 5a 3d
       -0.053344242 -0.11387892 -0.10098176 0.053362995

fc2.bias f4 [128]
000000 7b ba 2c 3b 15 99 3d bd 10 ca 59 3d 62 d1 6f bd
       0.0026356268 -0.04628857 0.053171217 -0.058549292
000010 74 ec 03 bd df 20 0c 3d df b1 11 3e 57 e5 84 bd
       -0.03220792 0.034211036 0.14228009 -0.064890556
000020 c5 ba 4e 3b cd ac 0a 3e b1 0c 41 bc 9c c5 b5 bc
       0.0031544429 0.13542481 -0.011782811 -0.022188954
000030 05 1e ac 3d 58 f6 ff bc 0a e3 f9 3d b4 b8 4d bd
       0.08404163 -0.031245396 0.122015074 -0.050224975
000040 19 37 27 3e a2 6a 46 3d 88 2d ab bd ac 7d bc bd
       0.16329612 0.048441537 -0.08358294 -0.092036575
000050 11 89 1b bd af 52 8f bd 8d 3f 91 bd f3 fb ad 3c
       -0.037972514 -0.069981925 -0.070921995 0.021238303
000060 9c 53 f1 3d 3d 8e 47 3b a3 65 89 3d aa ff 9b bc
       0.11783525 0.003044977 0.06708839 -0.019042809
000070 45 c3 b5 3d 4b f6 3e 3d c8 80 e2 3d de 57 e5 3d
       0.08875135 0.046621602 0.11059719 0.111984
000080 9d 64 de bd 77 df 24 3c bb b8 90 bd 7b ac 94 3c
       -0.10859034 0.010063044 -0.070664845 0.018148651
000090 80 42 af 3d bc 4a e9 bb 87 1a 2a 3e d0 42 d2 bd
       0.08557606 -0.0071195047 0.16611682 -0.1026665
0000a0 af 9a 44 3d 56 fd 89 bd 65 fe d7 3d d8 d4 d4 bb
       0.04799908 -0.06737773 0.10546569 -0.0064950995
0000b0 74 f5 30 bd e0 da f6 3d 4a ea 88 bd 2d d5 fb bc
       -0.043202832 0.12053466 -0.06685312 -0.030741299
0000c0 b0 2d e0 bb aa 10 a7 3d d1 59 0b 3e 23 1b f6 3d
       -0.006841384 0.08157475 0.13608481 0.12016895
0000d0 a5 9c 44 3d c5 df a2 bd 03 f2 98 3d fc c7 0d 3e
       0.04800095 -0.07952837 0.07468035 0.13845819
0000e0 2a 82 01 3e 43 b9 ed 3b fe 2c b0 3d 68 42 98 bd
       0.1264731 0.007254751 0.086023316 -0.07434541
0000f0 f1 27 f8 3d dd 5a 6b bd 06 a9 e7 3d 3e 8d 93 bc
       0.12116993 -0.0574597 0.113115355 -0.018011685
000100 9d 56 af 3c d1 ef 72 3b 01 99 e6 bd 1c 4a 58 bd
       0.021403605 0.0037069211 -0.11259652 -0.05280505
000110 58 62 a8 bd f4 14 db 39 dd 0c d5 3c 56 e3 92 3d
       -0.082218826 0.00041786546 0.02600711 0.07172267
000120 e2 c1 2c bd ac 2b 37 b8 6d 87 8f 3d c2 45 34 bd
       -0.04217709 -4.3671273e-05 0.07008252 -0.04401184
000130 0f e5 3b bc e4 e9 0b 3d 11 cb 1e bc 1d ad 8b bd
       -0.011468186 0.034158602 -0.0096919695 -0.06820128
000140 7a 05 7d bd a6 a7 39 3d b1 19 84 3d 83 df 9e bd
       -0.0617728 0.045325898 0.06450213 -0.07757475
000150 3d cf 31 bd 48 b9 a4 bd 3c 4a c0 3d bb 44 ab bd
       -0.04341053 -0.08043152 0.09389159 -0.08362719
000160 90 ab 22 3e 7d db fb 3c 3f 50 8a bd 0a ff 15 3e
       0.15885758 0.030744309 -0.06753587 0.14648071
000170 7c 0b a3 3d 6a ac 9b 3d 1b a5 f2 bc 64 2e 02 3e
       0.07961175 0.07601245 -0.029619744 0.12713009
000180 37 f8 e8 3c dc 9c ce 3d 3a 7f 03 bc 58 bb a0 3d
       0.02843867 0.10088512 -0.008025939 0.07848233
000190 05 79 85 3d 37 cc be 3d dc 11 cf bd 4d 72 d2 bc
       0.06517223 0.09316295 -0.10110828 -0.025689268
0001a0 86 74 12 3d b0 0a 85 bc 86 8c f6 3c e8 87 0c 3e
       0.035755657 -0.016240448 0.030096304 0.13723719
0001b0 51 3c b7 bc db d9 15 3e 3d 2f 6f bc a8 ba 5d bd
       -0.022367628 0.14633887 -0.014598665 -0.054133087
0001c0 14 24 98 bc 07 4b a6 bc c9 b9 97 bc 52 d5 2f 3e
       -0.01857189 -0.020299448 -0.018521206 0.17171219
0001d0 f5 33 4c bd 28 63 db 3d d1 3b c9 bd e8 c6 91 3d
       -0.049854238 0.10712272 -0.09825862 0.071180165
0001e0 b6 3d 0e 3e f8 15 01 3e 94 7b 12 3e 02 dd ae bd
       0.13890728 0.12606037 0.14304954 -0.08538248
0001f0 d1 0f ea bc 37 06 2f 3c fc d6 7d 3d dd 8b c4 3d
       -0.028571995 0.010682634 0.061972603 0.09596989

fc3.weight f4 [1, 128]
000000 f5 55 89 bd fc 54 c0 bd f1 d9 94 3d d0 12 1e be
       -0.06705848 -0.093912095 0.072681315 -0.15436864
000010 37 f8 c4 bd 9a 9c 32 3e 79 50 17 3e 8a e5 18 be
       -0.09617656 0.17442551 0.14776792 -0.14931312
000020 3b ee 44 be ff 54 4b 3e fb 22 d4 bd 32 97 83 be
       -0.19231503 0.19856642 -0.103582345 -0.2570129
000030 c7 c4 81 3d 1c 23 66 be 62 61 d2 3d eb d3 91 bd
       0.063363604 -0.2247433 0.102724805 -0.07120498
000040 d9 c9 b2 3d 10 44 d6 3d 0c cc 85 bd 32 a4 f8 bd
       0.08729906 0.10462201 -0.065330595 -0.12140693
000050 41 2a 68 be 65 87 a9 bd cb f4 fd bd 58 2c 3c 3d
       -0.22672369 -0.082777776 -0.12400206 0.045940727
000060 8b 26 8b 3d ad 4b 3e 3e 8a 93 b5 3d 5c 29 94 bd
       0.06794461 0.18583556 0.088660315 -0.07234451
000070 cc f1 ab 3d 6b df 9c 3d fe d9 b9 3d 36 1c 88 3d
       0.083957285 0.07659801 0.09074782 0.06646006
000080 77 ab df bd 97 31 e8 3d b8 b0 07 be d4 25 af be
       -0.10921376 0.113375835 -0.13251007 -0.34208548
000090 a3 5b 1a 3e 84 ed 80 be e0 5c f0 3d f4 cc c6 bd
       0.15074019 -0.2518121 0.117364645 -0.097070605
0000a0 0a 2c 12 3e ad 92 31 be 65 d1 b2 3d 7f ff 50 be
       0.14274612 -0.17341109 0.08731345 -0.20409964
0000b0 23 d6 a3 bd 03 9b e2 3d 03 07 69 bd b5 04 94 be
       -0.07999828 0.110647224 -0.056891453 -0.2890984
0000c0 08 af 30 be 83 3b 1b 3e 19 e1 f3 3d 5f 14 8c 3d
       -0.17254269 0.1515942 0.11908168 0.06839823
0000d0 bc 09 97 3d fb 7c 58 be 27 87 02 3e 72 4e 21 3e
       0.073749036 -0.21141426 0.12746869 0.15752581
0000e0 1b d8 81 3d f4 d5 52 be a5 d9 6a 3d b9 aa 64 be
       0.06340047 -0.20589429 0.05733647 -0.2233075
0000f0 d0 8c ed 3d 63 e6 8f bd 63 e3 65 3d 8a 77 5b 3e
       0.115991235 -0.07026365 0.056125056 0.2143232
000100 11 05 01 3e 27 7d ac be 32 44 08 be 80 91 5e be
       0.12599589 -0.33689234 -0.13307264 -0.21735191
000110 0d f2 2b be cc c7 bc 3d 9b e6 9b be ef 62 a4 3d
       -0.16791554 0.09217796 -0.30449376 0.080266826
000120 e2 03 27 be 5a c2 91 3d 4f 73 bd 3d 16 ab a1 be
       -0.16310075 0.07117148 0.09250509 -0.3157584
000130 94 0f 0f be a9 a4 a4 3d bc f6 6e be c6 58 44 be
       -0.13970786 0.08039219 -0.23336309 -0.1917449
000140 ce f9 2e be d1 4f 18 3e 35 1b a8 3d 13 26 c8 bd
       -0.1708748 0.14874198 0.08208314 -0.09772887
000150 93 74 f3 bd be 09 39 be 1c 70 85 3d b8 c5 39 be
       -0.11887469 -0.18070123 0.06515524 -0.1814183
000160 ac 5b 92 3d 54 e4 e6 3d 62 f0 a3 bd c2 ab 80 3d
       0.07146391 0.11274019 -0.08004834 0.0628276
000170 1d 5b c4 3d e8 8b a7 3d dd b3 14 be c1 ed c2 3d
       0.09587691 0.08180982 -0.14521737 0.09518004
000180 df 42 95 3d 5c bf 75 3d 5f 0b 53 be 6d f2 b9 3d
       0.07288145 0.059996948 -0.20609806 0.09079442
000190 28 f1 93 3d fb 1f 58 3d b1 01 d9 bd f4 da 94 be
       0.07223731 0.052764874 -0.10596026 -0.29073298
0001a0 99 39 a4 be 8f d7 e3 bd 7a 2e 32 3e 4b 86 91 3d
       -0.32075194 -0.11125099 0.17400542 0.071056925
0001b0 7c b0 2e be 62 7e a2 3d 3b 73 41 be a0 81 9d bd
       -0.17059511 0.07934262 -0.18891613 -0.0769074
0001c0 2c 19 90 be 5f f0 bc bd b5 a5 fd bd 7c 08 12 3e
       -0.28144205 -0.09225535 -0.12385122 0.14261049
0001d0 93 14 96 be 12 5b f5 3d 9e 1f af bd f4 06 f1 3d
       -0.29312572 0.11980261 -0.085509524 0.11768904
0001e0 16 8c 5f 3e ad 45 c3 3d f0 fb ef 3d bd 7c 3d bd
       0.21830782 0.09534774 0.11717975 -0.046261538
0001f0 b3 04 f5 bd 7e e1 5e 3d c0 4b 02 3e ee 1b e0 3d
       -0.11963787 0.054414265 0.12724209 0.10942827
